AI(BE)/Previous_materials/Tensorflow Lite Model/CountingModel_jj.tflite (tflite, 2800 bytes, 2 tensors)

sequential_1/dense_1/BiasAdd/ReadVariableOp/resource f4 [6]
000000 e9 16 c9 ba f6 ad f4 ba 8c 9a 06 3d e1 e3 cb bc
       -0.0015341911 -0.0018667567 0.03286223 -0.024888935
000010 1b 49 08 3b 37 f8 d9 bb
       0.0020795527 -0.006651904

sequential_1/dense_1/MatMul f4 [6, 75]
000000 b5 6a 89 3c 98 b5 46 3d 1b bc 33 bd 44 2a 34 bc
       0.016774515 0.048513025 -0.043880563 -0.010996405
000010 d0 76 87 be 26 59 36 bc e1 45 c6 3c ca fa 92 be
       -0.26457834 -0.011129653 0.024203243 -0.28706962
000020 d5 0d 3d bd 09 0d b2 3c d7 63 b7 bc 2b 7a 81 bb
       -0.04615577 0.021734731 -0.022386475 -0.003951331
000030 e5 c3 57 bc 60 c2 bb 3c 7c 64 a7 3d 28 3c de ba
       -0.0131692635 0.022919834 0.08173463 -0.0016955184
000040 c2 23 ef bd de 9e 03 3d 85 a8 e2 bc f3 f4 d9 bd
       -0.11676742 0.03213393 -0.027668247 -0.106424235
000050 2c 36 76 3d e5 83 82 bd d0 4e 9c 3d 10 dd ae bd
       0.060110256 -0.06372813 0.0763222 -0.08538258
000060 99 c5 45 3d 20 f9 e3 3d c0 db b6 bd cd ef 2f 3c
       0.048284147 0.11131501 -0.08928633 0.010738325
000070 0e ed 92 be 3b 16 77 bc dd c7 34 3c a4 3e 87 be
       -0.28696483 -0.015080984 0.011033979 -0.26414979
000080 22 bb 11 3d d6 fc 85 bd e4 a9 25 bd 42 1b 5a bd
       0.035578854 -0.06542365 -0.040445223 -0.05324865
000090 ad e2 a8 3c cf 42 a0 3b a9 02 ef bc 9b d9 ff 3c
       0.0206159 0.0048907767 -0.029176073 0.031231692
0000a0 b1 92 80 be 7d 13 63 bd a4 57 c5 3c 36 d7 4f be
       -0.25111917 -0.055438507 0.024089642 -0.2029694
0000b0 97 bc 41 bc 43 f5 af bd 65 3e 9c bd 51 35 53 bc
       -0.0118247485 -0.08591702 -0.07629088 -0.01289113
0000c0 de bb f7 3b f1 8f 66 bd e7 51 95 3c 9b d9 ff 3c
       0.0075602373 -0.056289617 0.01822753 0.031231692
0000d0 b1 92 80 be 7d 13 63 bd a4 57 c5 3c 36 d7 4f be
       -0.25111917 -0.055438507 0.024089642 -0.2029694
0000e0 97 bc 41 bc db f8 0f bd 1f c1 c5 3c 63 b4 28 bd
       -0.0118247485 -0.035149436 0.024139939 -0.041187655
0000f0 df 08 b6 bd 97 98 01 3d a1 6d ec 3c 2c 78 8f bd
       -0.08888411 0.03163966 0.028860869 -0.07005343
000100 d5 39 8e 3d d9 43 36 3d 4a 77 bd 3c 9b 76 88 3d
       0.06944624 0.0444983 0.02312817 0.06663247
000110 df 72 cc 3c de 0c 8c 3c ee 47 15 3e 5f 97 5e 3d
       0.024957119 0.01709598 0.1457822 0.054343577
000120 29 1d b7 bc 1f d5 ca 3d 7a f0 a7 3c 55 a0 bb bc
       -0.022352772 0.09903931 0.02050041 -0.0229036
000130 e2 26 07 bd ab 18 82 bd 71 25 3e 3d d1 c7 ac 3d
       -0.032996066 -0.06352361 0.046422426 0.084365495
000140 e7 75 4b 3d e0 d5 ee bc 7f af 08 3e d6 12 24 3e
       0.049672987 -0.029154718 0.13348196 0.1602281
000150 8f d0 12 3d 86 21 6c be 26 07 f7 bc 74 da 83 bd
       0.03584343 -0.23059663 -0.030154776 -0.06438151
000160 84 22 89 be 0f f9 c0 bd 3a 62 31 bd aa 25 f0 3d
       -0.26784146 -0.09422504 -0.043306567 0.11725934
000170 46 4d e5 bd 65 32 cc 3c 9c f6 eb 3d 75 b9 b9 bd
       -0.11196379 0.024926374 0.115216464 -0.09068576
000180 6b 47 bb 3c 16 b2 e0 bd 7f c3 10 3d 50 b3 a4 bd
       0.022861203 -0.10971467 0.03534269 -0.08042014
000190 95 63 00 be 69 ad c5 3b 00 7b a8 3d 9e bd 15 be
       -0.12537988 0.006032635 0.082265854 -0.14623114
0001a0 a8 e4 9f 3c ed 8f bf bd 8a 95 09 be 9d 2c 87 3d
       0.019518211 -0.093536235 -0.13435951 0.06600306
0001b0 09 7d a7 bc 48 39 f7 3b 87 eb 9c bd 6e 4d 63 bd
       -0.020445364 0.0075446703 -0.07662111 -0.055493765
0001c0 6b 84 26 bc 9e 5e ad bd 6b 82 48 3d 8e 1e 33 be
       -0.010163407 -0.084653124 0.0489525 -0.17492124
0001d0 53 08 8b bc 4d 26 d9 bd 0b c8 2f be e9 25 c9 bc
       -0.016971743 -0.106030084 -0.17166154 -0.02455421
0001e0 3d d4 52 3c e9 6a 14 3d 90 60 24 bd ad 20 30 bd
       0.012867984 0.03623477 -0.04013115 -0.042999912
0001f0 d2 51 de 3c 93 77 c1 3b 6b 82 48 3d 8e 1e 33 be
       0.027138624 0.005904147 0.0489525 -0.17492124
000200 53 08 8b bc 4d 26 d9 bd 0b c8 2f be e9 25 c9 bc
       -0.016971743 -0.106030084 -0.17166154 -0.02455421
000210 78 15 76 3d 17 c7 ad 3c d9 3d b7 3c 9d 76 3b 3e
       0.060079068 0.021213097 0.022368358 0.18306966
000220 4e c5 ae bc c0 64 52 bc ff 6f 24 bd fe 54 83 bc
       -0.021334317 -0.0128414035 -0.04014587 -0.016031738
000230 9e cf 2a bd 0e 68 a3 3d ce 8c 17 bd 02 a7 2c bd
       -0.041701905 0.07978831 -0.036999516 -0.04215146
000240 ce 87 69 bc c4 64 ab 3d 9b ad 3f 3d 82 66 a5 3d
       -0.01425357 0.08368829 0.046796422 0.080761924
000250 52 30 ba 3d 18 a8 5f 3d e1 8e 0c 3c fb 44 ae 3d
       0.090912476 0.054603666 0.008578987 0.08509251
000260 79 7c 14 3e 8f 48 79 3d 01 29 06 be 99 79 70 bd
       0.14500608 0.060860213 -0.13101579 -0.058709715
000270 f8 c5 95 bd 2d a5 38 be f6 75 cf bc 63 be 51 bd
       -0.0731315 -0.1803176 -0.025324803 -0.051206958
000280 8e 2c 93 3e 11 3f 4c bc 1d 3e bc 3d 92 81 85 3e
       0.2874493 -0.012466208 0.09191535 0.26075417
000290 28 05 a0 bd b4 9e 98 3d 31 19 ab 3d 29 88 69 3d
       -0.078134835 0.07452145 0.08354414 0.057014618
0002a0 0b e6 5b bd a9 bf a3 3d 53 0d ac 3d 75 61 26 3d
       -0.053686183 0.07995541 0.08400979 0.040620286
0002b0 0d 45 de bc c9 2d c4 3d a2 2f 8f 3c 1e 09 5d bd
       -0.027132535 0.09579045 0.017478768 -0.053963773
0002c0 e1 31 26 bc ad 28 1e 3c 1b 30 20 3e af c4 91 bd
       -0.010143728 0.009653253 0.15643351 -0.071175925
0002d0 91 e0 99 3c ec bb a4 3d a6 e2 d3 bd 6e cf eb 3d
       0.01878384 0.08043656 -0.10345964 0.115141734
0002e0 dc 0f 67 3d ef 78 1c 3e 3a 4e 14 bd 67 ec d4 3c
       0.05641161 0.15280508 -0.036207415 0.025991632
0002f0 17 47 97 3d 89 55 62 3c 0f e4 7e 3e 9d 50 be 3d
       0.07386606 0.0138143385 0.24891685 0.092927195
000300 82 2c 02 3d fd ee 21 3e c8 e7 b7 3c d3 49 e3 3d
       0.031780727 0.15813823 0.02244939 0.11098065
000310 f7 bf 13 bd 6e 1b 39 bc 74 8a 49 bd e6 cd 53 bd
       -0.036071744 -0.011298044 -0.049204305 -0.051710032
000320 01 2b 55 bd 89 55 62 3c 0f e4 7e 3e 9d 50 be 3d
       -0.052042965 0.0138143385 0.24891685 0.092927195
000330 82 2c 02 3d fd ee 21 3e c8 e7 b7 3c b3 d2 ff bd
       0.031780727 0.15813823 0.02244939 -0.124913596
000340 78 81 21 3d d4 b0 2d 3d 57 09 03 be 68 a5 cc 3d
       0.03943011 0.042404965 -0.12796532 0.09992486
000350 0e fb 97 3d 6c 2a 95 3c 55 a6 50 3c 72 93 be bc
       0.07420932 0.018208705 0.012734969 -0.023263667
000360 c0 bb 1a be 1c b2 95 3d f0 f1 01 bd 10 0d 84 bd
       -0.15110683 0.07309362 -0.03172487 -0.06447804
000370 03 54 1c be 3e a1 fb bd c2 0d 11 3b 8a 8c bc bd
       -0.15266423 -0.12286614 0.0022133444 -0.09206493
000380 09 41 45 bd b2 50 fe 3a dc 56 f6 bc 17 7e 02 bd
       -0.048157725 0.0019402711 -0.030070715 -0.03185853
000390 ea 68 69 bd 65 11 2f 3e 82 59 63 3d 22 a4 75 3d
       -0.05698482 0.17096479 0.055505283 0.059970982
0003a0 df fd 4d 3e e1 fb 8d 3c 58 7d 49 3d f6 d1 24 3d
       0.20116375 0.01733202 0.049191803 0.040239297
0003b0 f1 fd ac bc 80 b1 82 bd 6c 0c 9d 3d ab da 37 bc
       -0.021117182 -0.06381512 0.07668385 -0.011221568
0003c0 ec e1 de bc f4 6c c5 3b f3 8b 78 3d 97 93 43 3d
       -0.027207337 0.006024951 0.06068034 0.047748175
0003d0 85 30 d7 3b 40 c0 99 3b b8 3e 2e 3a b7 f4 fc bc
       0.0065670633 0.0046921074 0.0006646919 -0.030878408
0003e0 9b ff af bd 80 59 fc 3b 23 d8 ae bc d6 89 7d bc
       -0.08593675 0.007701099 -0.021343296 -0.015474757
0003f0 91 5c ff bb e3 45 58 3e 89 da 0c 3d ea ed 7b bb
       -0.007793017 0.2112041 0.0343881 -0.0038441368
